ship_example.onnx (onnx, 249209 bytes, 1 tensors)

fc1.weight f4 [1, 62208]
000000 20 e6 9f bc bd 8b cc bc 1e a4 d8 bc e0 d8 b7 bc
       -0.019518912 -0.024968976 -0.026445445 -0.022442281
000010 26 44 de bc f8 b5 95 bc 8a b7 9c bc 7b 7f 7a bc
       -0.027132105 -0.018275246 -0.019130487 -0.015289183
000020 f3 43 84 bc 01 03 93 bc 5f ae 82 bc 0c 4a 8c bc
       -0.016145682 -0.017945768 -0.015952287 -0.017125152
000030 54 8a 85 bc 90 ef a2 bc 88 e6 a5 bc c0 8a b1 bc
       -0.016301312 -0.019889623 -0.020251527 -0.021672606
000040 d3 0b b3 bc 0f dd ba bc e5 ac 9f bc 49 85 b1 bc
       -0.021856224 -0.022810487 -0.019491622 -0.02167
000050 0f 8b d2 bc 28 6e ea bc 66 a9 e6 bc 8a e8 f0 bc
       -0.025701074 -0.02861698 -0.028156947 -0.029407758
000060 82 72 f0 bc 14 95 e9 bc 15 0e dd bc 96 43 e8 bc
       -0.029351477 -0.028513469 -0.026984254 -0.02835254
000070 4d 91 0e bd fa c4 f2 bc 81 39 05 bd 1d e9 f8 bc
       -0.03480654 -0.029634941 -0.032525543 -0.030384595
000080 3e 5f 04 bd cf a5 21 bd 8d ad 1f bd 37 7a 15 bd
       -0.032317393 -0.039464768 -0.03898387 -0.036493506
000090 5c 26 ff bc 82 61 14 bd ee 94 0f bd e6 94 1f bd
       -0.03114622 -0.036225803 -0.03505414 -0.03896036
0000a0 7e dc 08 bd ef 25 20 bd 99 11 0c bd 95 3d 1b bd
       -0.033413403 -0.039098676 -0.03419647 -0.037900526
0000b0 09 87 27 bd bc 51 11 bd 25 bc 19 bd b5 d5 0a bd
       -0.040900264 -0.03547834 -0.037532944 -0.033895213
0000c0 ec 9d 13 bd e7 ab 10 bd 64 be 21 bd 1a dd 1d bd
       -0.036039278 -0.03532019 -0.03948821 -0.038540937
0000d0 0a 11 15 bd 2e e1 28 bd 1b 31 18 bd 41 2f 23 bd
       -0.036393203 -0.041230373 -0.037156206 -0.039839987
0000e0 58 a8 37 bd 5d a6 42 bd 0f 8c 2c bd 8e 41 31 bd
       -0.04483828 -0.047521938 -0.042125758 -0.04327541
0000f0 37 4a 41 bd 84 0b 2e bd 82 4f 2d bd d0 c4 28 bd
       -0.047189917 -0.04249145 -0.042312153 -0.04120332
000100 18 2f 41 bd 8a d9 32 bd c7 0f 29 bd 7b 28 1f bd
       -0.047164053 -0.043664493 -0.041274812 -0.038856965
000110 fe dd 27 bd 72 0d 28 bd 15 c6 15 bd 05 b7 24 bd
       -0.040983193 -0.041028447 -0.03656586 -0.040213604
000120 c1 de 1a bd 25 ad 22 bd e3 58 20 bd 5f 1f 25 bd
       -0.03781009 -0.039715905 -0.03914727 -0.04031312
000130 04 5e 22 bd 62 9e 25 bd 9d b3 43 bd 16 18 2e bd
       -0.03964044 -0.04043425 -0.047778714 -0.04250344
000140 50 ff 42 bd 9b 0b 42 bd c3 45 33 bd cd 5b 38 bd
       -0.047606766 -0.04737435 -0.0437677 -0.045009423
000150 23 25 27 bd 30 ae 32 bd 57 2f 33 bd 9c a7 0f bd
       -0.0408069 -0.04362315 -0.04374632 -0.035071954
000160 5f 2f 14 bd 8a d6 ee bc 9b 6e e3 bc 5c e6 ff bc
       -0.03617799 -0.029155035 -0.027762702 -0.031237774
000170 7f ec e5 bc 49 82 ea bc 38 ab 07 bd fa f7 07 bd
       -0.028066872 -0.028626578 -0.03312227 -0.033195473
000180 03 9f f9 bc 83 65 03 bd f1 35 06 bd b0 28 f9 bc
       -0.03047133 -0.03207923 -0.032766286 -0.03041491
000190 31 44 cb bc 78 99 f0 bc ca f0 d6 bc 5b 35 e3 bc
       -0.02481279 -0.029370055 -0.026237864 -0.027735403
0001a0 02 eb 03 bd 19 76 06 bd b1 ca cf bc e3 c5 db bc
       -0.032206543 -0.03282747 -0.025365205 -0.026827758
0001b0 28 3a c2 bc 9b 60 cd bc 36 9d c1 bc 3a 46 b1 bc
       -0.023709372 -0.02507048 -0.023634534 -0.021639932
0001c0 ed c2 ad bc dc 6f e2 bc 7b 5c c9 bc 45 0d b5 bc
       -0.021211112 -0.02764123 -0.024580231 -0.022101054
0001d0 ba 7b aa bc 72 cd a6 bc dc 0c d1 bc ce 48 cf bc
       -0.02081095 -0.020361636 -0.025518827 -0.02530327
0001e0 3d 2c dd bc 10 f5 d0 bc 14 98 b9 bc 5b 79 f9 bc
       -0.026998634 -0.02550748 -0.022655524 -0.030453375
0001f0 c9 9f e0 bc c5 90 06 bd 79 d4 0f bd e2 9b 08 bd
       -0.027419941 -0.032852907 -0.03511474 -0.033351786
000200 05 20 01 bd 2c 11 fd bc ad b4 1c bd b1 fa 13 bd
       -0.031524677 -0.030891977 -0.038258243 -0.03612775
000210 ed 9e 04 bd 06 18 05 bd a7 5e 07 bd 89 38 03 bd
       -0.032378126 -0.032493614 -0.033049252 -0.032036338
000220 ed f3 00 bd fd 62 07 bd 85 51 1d bd 32 aa 22 bd
       -0.031482626 -0.033053387 -0.03840782 -0.039713092
000230 9a a3 1c bd 5b 3e 16 bd 7c 39 1f bd 2a 90 0f bd
       -0.03824196 -0.03668056 -0.03887318 -0.035049595
000240 08 c2 10 bd 91 04 1e bd 58 a0 14 bd 62 38 12 bd
       -0.035341293 -0.038578574 -0.03628573 -0.035698302
000250 e7 ac 09 bd 63 78 04 bd b4 74 13 bd bd 3f 00 bd
       -0.03361216 -0.032341372 -0.03599997 -0.031310786
000260 9a 58 12 bd cb 28 09 bd 3e 42 12 bd ea 77 08 bd
       -0.03572903 -0.03348617 -0.035707705 -0.033317484
000270 0f c8 02 bd fe 4c f5 bc 13 63 c8 bc 0b 05 e2 bc
       -0.031929072 -0.02994394 -0.024461305 -0.027590295
000280 84 77 e8 bc 1d af b5 bc cb 1b b0 bc 4e 07 a0 bc
       -0.028377302 -0.022178227 -0.021497628 -0.019534733
000290 61 75 bf bc a1 5b a3 bc 5c d4 ae bc fa e4 a2 bc
       -0.0233714 -0.019941153 -0.021341495 -0.019884575
0002a0 71 d0 ad bc 0d 64 9d bc 85 c7 9d bc b8 62 8b bc
       -0.021217557 -0.019212747 -0.019260177 -0.017014846
0002b0 af e9 a2 bc 58 13 b2 bc 41 ec 97 bc bf c5 96 bc
       -0.01988682 -0.02173774 -0.018545272 -0.01840484
0002c0 60 62 a3 bc 59 96 b5 bc 1e 6a ca bc 67 8c 9e bc
       -0.01994437 -0.022166418 -0.024708804 -0.019354058
0002d0 a7 78 c7 bc dd 57 c9 bc 42 49 ee bc be 46 de bc
       -0.024349524 -0.02457803 -0.029087666 -0.027133342
0002e0 95 98 ec bc 93 1e b9 bc 14 b0 ef bc ad 09 e3 bc
       -0.02888135 -0.022597587 -0.029258765 -0.027714575
0002f0 7a 11 cc bc b4 32 e6 bc 16 15 c4 bc 0c 0b d9 bc
       -0.024910677 -0.028100349 -0.023935836 -0.026494525
000300 b8 ea bd bc b3 44 bf bc 8b db bc bc 8d 47 e4 bc
       -0.023183212 -0.023348188 -0.023053905 -0.02786615
000310 2f 79 b3 bc e3 46 93 bc e6 ed 65 bc 8c 71 a1 bc
       -0.02190837 -0.017978137 -0.01403377 -0.019707464
000320 a0 32 80 bc a0 48 a9 bc 82 77 63 bc fd 94 9b bc
       -0.01564914 -0.020664513 -0.013883473 -0.018991942
000330 b4 07 85 bc 3c 46 9f bc ef 5a b2 bc f2 7c bd bc
       -0.016239025 -0.01944267 -0.021771876 -0.023130868
000340 b8 53 bc bc c8 b6 af bc 4c 7f b6 bc 5c 27 b0 bc
       -0.022989139 -0.021449462 -0.022277497 -0.021503143
000350 f8 55 e1 bc a4 b0 b9 bc dc fd c3 bc eb 25 d0 bc
       -0.027506813 -0.022667237 -0.02392476 -0.025408706
000360 e8 3e de bc 20 74 0b bd e1 09 05 bd c9 c0 e2 bc
       -0.027129605 -0.034046292 -0.032480124 -0.027679818
000370 fe 9a 0d bd 1c 5e eb bc f7 e3 16 bd 8d f3 18 bd
       -0.03457164 -0.028731398 -0.036838498 -0.037341643
000380 e6 d5 06 bd a8 31 1b bd 27 14 13 bd 3f b4 00 bd
       -0.032918833 -0.037889153 -0.03590789 -0.031421896
000390 e5 3c fc bc 56 52 fa bc 1c 2f 15 bd 78 ba 22 bd
       -0.030790756 -0.030556839 -0.03642188 -0.03972861
0003a0 8d 38 07 bd db ab 1c bd eb 23 21 bd 97 27 18 bd
       -0.033012915 -0.03824983 -0.039340895 -0.03714713
0003b0 5c f4 28 bd 07 e2 0b bd 25 a2 02 bd f2 27 15 bd
       -0.041248664 -0.034151103 -0.031892914 -0.036415048
0003c0 cc f3 16 bd 14 95 11 bd 22 b9 10 bd f9 b6 1d bd
       -0.036853597 -0.035542563 -0.035332806 -0.038504574
0003d0 5e de 2d bd 27 9c 2c bd aa cb 3a bd e2 87 38 bd
       -0.042448394 -0.042141106 -0.045604385 -0.045051463
0003e0 b0 e4 40 bd 6b e2 29 bd 23 84 2c bd 06 cc 41 bd
       -0.047093093 -0.041475695 -0.042118203 -0.047313713
0003f0 03 ad 37 bd f9 14 2e bd 61 25 2f bd 4d c5 38 bd
       -0.04484273 -0.04250047 -0.042760257 -0.045110036
